discriminator.pt (torch, 679183 bytes, 7 tensors)

main.0.weight f4 [64, 3, 2, 2]
0	0xbd789a02	-0.06069375
1	0x3e07c2d8	0.1325792
2	0x3d0abc37	0.033870902
3	0xba1470ec	-0.00056625786
4	0x3cdabe72	0.02670214
5	0xbddba5ea	-0.10725005
6	0x3c9ba82e	0.019001093
7	0x3be1ff9f	0.0068969275
8	0x3dd0e4ff	0.101999275
9	0xbdd8bf85	-0.105834045
10	0xbeaebeae	-0.34129852
11	0x3e72fd78	0.23729503
12	0x3e3eccbc	0.18632787
13	0xbd737bc9	-0.059444223
14	0xbc0faf23	-0.008769783
15	0xbdb3e653	-0.08784165
16	0x3e4380c1	0.19092084
17	0xbdfc62a6	-0.12323503
18	0x3d828039	0.06372113
19	0xbd7d07ff	-0.061775204
20	0xbeb56f3c	-0.35436428
21	0x3d7f80e7	0.06237879
22	0xbe1cfab6	-0.15330014
23	0x3e13d38b	0.14436166
24	0x3d068a6e	0.03284686
25	0x3dc20918	0.09474391
26	0xbe8ed0b9	-0.27893618
27	0x3e4b75c1	0.19869138
28	0x3e642e7d	0.22283359
29	0xbe95519f	-0.29163834
30	0xbdaa489d	-0.08314631
31	0x3db1e379	0.08685965
32	0x3e8ce27c	0.27516544
33	0xbe1d9fea	-0.15393034
34	0xbe77b918	-0.24191701
35	0x3e0cf1a6	0.13764057
36	0xbde9bba2	-0.11412741
37	0xbe3fcf05	-0.18731315
38	0xbe56ecb2	-0.2098873
39	0x3e72748e	0.23677275
40	0x3ce0c9f4	0.027440049
41	0x3e32f561	0.17476417
42	0xbdd07662	-0.1017883
43	0xbc0f61f3	-0.00875138
44	0xbe01b526	-0.12666759
45	0x3d9deaf8	0.07710832
46	0x3c6db041	0.014507354
47	0x3c3908c0	0.01129359
48	0x3e9dfc7f	0.30856702
49	0x3c93c7ad	0.018039549
50	0xbe64c0fd	-0.22339244
51	0xbe745082	-0.23858836
52	0x3d7083f7	0.0587196
53	0xbdd511eb	-0.10403808
54	0x3ea454f0	0.32096052
55	0xbde1d1e3	-0.11026361
56	0xbeb3fc01	-0.351532
57	0x3d977ead	0.07397208
58	0xbde06d3d	-0.109583355
59	0x3ea60d76	0.32432145
60	0x3d0b33d8	0.03398499
61	0x3db6fbf7	0.08934777
62	0xbe00430d	-0.12525578
63	0xbdde6ed2	-0.10860981
64	0x3da223d4	0.0791699
65	0x3e2ad589	0.1668302
66	0xbd7618f5	-0.060082395
67	0xbdbafcce	-0.0913025
68	0x3cbe9135	0.0232626
69	0xbe40f61e	-0.18843886
70	0xbdbf12df	-0.09329771
71	0x3e0436f4	0.12911588
72	0xbcaf418e	-0.021393564
73	0xbe2d5438	-0.16926658
74	0xbd36e803	-0.044654857
75	0xbe419691	-0.18905093
76	0x3bac4f19	0.0052584526
77	0xbdc84365	-0.097784795
78	0x3cad9345	0.021188388
79	0x3e0e8ce5	0.13920934
80	0xbc52fe8a	-0.01287807
81	0x3e8026c4	0.25029576
82	0x3dd110f9	0.102083154
83	0xbd85977a	-0.065230325
84	0x3c7db9bd	0.015486178
85	0x3d976a5f	0.073933356
86	0x3d08edff	0.033430096
87	0x3e178db1	0.14800145
88	0x3d552867	0.052040484
89	0xbd97f28e	-0.074193105
90	0xbcf21be2	-0.029554311
91	0xbd82f1a9	-0.06393749
92	0x3d37143c	0.04469703
93	0x3db69e60	0.089169264
94	0xbe60dc58	-0.21959054
95	0x3e4282bf	0.18995188
96	0x3e1a53e9	0.15071072
97	0xbe46d5de	-0.19417521
98	0x3c94f03d	0.01818096
99	0xbde478f4	-0.111558825
100	0xbe354872	-0.17703417
101	0xbd9219ef	-0.07133853
102	0xbd95cbfe	-0.07314299
103	0x3da3d9a7	0.08000498
104	0x3e8053df	0.2506399
105	0x3ea4dd58	0.32200122
106	0x3e99e309	0.30056027
107	0x3cc3bca7	0.023893667
108	0xbe7b0a92	-0.24515751
109	0x3e8d0f5e	0.27550787
110	0x3bf32a4f	0.007420815
111	0x3de64c7f	0.11245059
112	0x3da0a786	0.078444526
113	0x3da2f111	0.07956136
114	0xbd883646	-0.06650977
115	0xbcf0d104	-0.029396541
116	0xbe06fa96	-0.13181528
117	0x3e2997dd	0.16561837
118	0xbe178607	-0.14797221
119	0x3d7e56e4	0.062094584
120	0x3b4a1cca	0.0030839914
121	0xbe03294f	-0.12808727
122	0xbdd0ac1c	-0.10189077
123	0x3d930987	0.071795516
124	0x3db15a38	0.08659786
125	0x3ea23812	0.31683403
126	0x3e24bf48	0.16088593
127	0xbdfa99db	-0.12236377
128	0xbd1254c2	-0.035725363
129	0xbdad58c7	-0.084641986
130	0x3d5afbc5	0.053462762
131	0x3ccc5ea6	0.024947476
132	0xbdcb900f	-0.09939586
133	0x3e1a0aea	0.15043226
134	0xbd1e8aa9	-0.038706455
135	0xbc8096f4	-0.01569698
136	0x3df28a59	0.11842794
137	0x3e02d7fa	0.12777701
138	0xbd8babfd	-0.068199135
139	0xbe30c725	-0.17263468
140	0x3da21f31	0.079161055
141	0x3e6674eb	0.22505538
142	0x3be0df60	0.006862566
143	0xbdef0c18	-0.116722286
144	0x3cfd0a75	0.030888775
145	0xbe49bc3a	-0.19700709
146	0xbdefc700	-0.11707878
147	0xbcb60bd6	-0.02222244
148	0x3c94aebb	0.018149724
149	0x3de7ffbb	0.113280736
150	0x3e277593	0.16353445
151	0x3d24cd05	0.040234584
152	0x3d1754ac	0.036945984
153	0xbd8c7c5c	-0.06859657
154	0xbe082ef3	-0.1329916
155	0x3cc29c9a	0.023756314
156	0x3e48b829	0.19601502
157	0xbe299d09	-0.1656381
158	0xbc9f96cf	-0.01948109
159	0xbe9129f1	-0.2835231
160	0xbe2b935b	-0.1675543
161	0x3d49f449	0.049305234
162	0x3cd9e216	0.026597064
163	0x3ed39992	0.41328102
164	0x3d0c5b52	0.034266777
165	0x3d571d5a	0.052518226
166	0xbbb53f04	-0.0055311937
167	0xbe6f67e7	-0.2337948
168	0xbe56de11	-0.20983149
169	0xbe83c5f2	-0.25736958
170	0x3d3336a3	0.043753278
171	0x3ed6a1fa	0.41920453
172	0x3dfa36ae	0.122174606
173	0xbe7bd109	-0.2459146
174	0x3c85559c	0.016276173
175	0x3dd72680	0.1050539
176	0x3ddcf4a8	0.10788852
177	0x3eff4a13	0.49861202
178	0xbdbc70e0	-0.09201217
179	0xbf0317e7	-0.5120835
180	0xbe06a020	-0.1314702
181	0x3c92788c	0.017879747
182	0x3e56aa6a	0.20963445
183	0x3c1361f5	0.008995523
184	0x3d82301f	0.063568346
185	0xbe348d60	-0.17632055
186	0xbe88aa61	-0.2669249
187	0xbe36d62b	-0.17855136
188	0xbd777744	-0.060416475
189	0x3e25a1f8	0.16175067
190	0x3d977dfe	0.07397078
191	0x3e5d24db	0.2159609
192	0x3c4d0b5a	0.012514913
193	0x3e8f67a1	0.2800875
194	0xbe5637dd	-0.20919748
195	0x3dcc2789	0.09968478
196	0xbe974ee9	-0.2955239
197	0x3d9f8399	0.07788772
198	0x3de42315	0.11139504
199	0xbda55e47	-0.080746226
200	0x3da4386c	0.08018574
201	0xbdd038a3	-0.101670526
202	0x3cac0ff9	0.02100371
203	0x3dbf07a4	0.09327629
204	0xbe926018	-0.2858894
205	0x3cc65eef	0.02421519
206	0xbdb4e1d6	-0.08832137
207	0x3d20e018	0.039276212
208	0x3dc8489c	0.09779474
209	0x3b1b4b9e	0.0023696194
210	0x3e5c9fa8	0.21545279
211	0xbd0cc9de	-0.034372203
212	0x3dad087f	0.08448886
213	0xbe09b1df	-0.13446759
214	0x3e0459aa	0.12924829
215	0xbb31e1a2	-0.0027142544
216	0x3db3f550	0.08787024
217	0xbb3e39fe	-0.0029026265
218	0x3d003dad	0.03130882
219	0x3d89ef15	0.067350544
220	0xbe17f1a8	-0.14838278
221	0xbe3541bc	-0.17700857
222	0xbddcfeb3	-0.107907675
223	0xbdd2ceb1	-0.102933295
224	0x3d938908	0.07203871
225	0xbd20f055	-0.0392917
226	0x3e288609	0.1645738
227	0xbe03e770	-0.12881255
228	0xbe8f36d7	-0.27971527
229	0xbe273737	-0.16329657
230	0x3e9b365a	0.30314904
231	0x3e03e25c	0.12879318
232	0xbd04b1fe	-0.03239631
233	0x3e6a0391	0.22852923
234	0xbdb235b1	-0.08701647
235	0xbd897d5b	-0.06713363
236	0x3c8a48af	0.016880361
237	0x3d9455be	0.072429165
238	0x3db959a9	0.090503044
239	0xbe382f8f	-0.17986892
240	0x3e63feb1	0.22265126
241	0x3d1bcc25	0.038036484
242	0x3de685b8	0.112559736
243	0xbe3e4396	-0.1858047
244	0xbd87f72d	-0.06638942
245	0xbe90ee0b	-0.28306612
246	0xbd9b61b9	-0.075869985
247	0x3e144605	0.14479835
248	0x3e90567f	0.2819099
249	0x3d3a966d	0.045553613
250	0xbc43ab76	-0.011942735
251	0x3c216fb4	0.009853292
252	0x3d44517b	0.04792927
253	0xbd8d54c4	-0.069009334
254	0xbe89a57e	-0.26884073
255	0x3ea65768	0.3248856

main.0.bias f4 [64]
0	0xbd42a23c	-0.047518
1	0xbc85e081	-0.016342403
2	0xbd65b427	-0.05608001
3	0x3b720c4b	0.0036933597
4	0x3b1d6c6b	0.002402092
5	0xbda7b97c	-0.08189675
6	0x3da5c824	0.080948144
7	0xbe3499d4	-0.17636806
8	0xbea46530	-0.3210845
9	0xbe3fef3c	-0.18743604
10	0xbe08faef	-0.13376974
11	0xbe06cd2a	-0.13164201
12	0xbd6479b3	-0.055780124
13	0x3d36a6a4	0.044592515
14	0xbb3c27cb	-0.0028710242
15	0xbd4b7cfc	-0.04967974
16	0xbdf2be9f	-0.11852764
17	0xbd32c543	-0.043645155
18	0xbdce7a5a	-0.100819305
19	0xbc5e51e4	-0.013569329
20	0xbdf65f1c	-0.120298594
21	0xbdb65442	-0.0890279
22	0xbe5ea8a9	-0.21744026
23	0xbee32121	-0.44361213
24	0x3d2c5500	0.04207325
25	0x3dd2abfd	0.102867104
26	0xbd4f2198	-0.050569147
27	0xbc80051b	-0.015627434
28	0xbe272467	-0.1632248
29	0xbe806b81	-0.2508202
30	0x3a187ad0	0.00058166403
31	0xbbe0a9b1	-0.0068561663
32	0xbea15e34	-0.31517184
33	0xbd213377	-0.03935572
34	0xbcf1c6dd	-0.02951377
35	0xbea12d1f	-0.31479737
36	0xbd994bca	-0.07485159
37	0xbb5ecd22	-0.003399678
38	0xbc3ce239	-0.011528545
39	0xbb5afb12	-0.003341381
40	0xbd9134b8	-0.070901334
41	0xbd2e11b9	-0.04249737
42	0xbe00fcc6	-0.12596425
43	0xbc2ab522	-0.010419162
44	0xbec13279	-0.3773382
45	0x37c3a153	2.3320934e-05
46	0xbdeb51ba	-0.114901975
47	0xbc3c16cb	-0.011480044
48	0xbcf51135	-0.029915432
49	0xbc0fc9e9	-0.0087761665
50	0xbd1053d8	-0.03523621
51	0x3d27862b	0.040899437
52	0xbe27a61e	-0.16371962
53	0xbe2d6821	-0.16934253
54	0xbb1000ff	-0.002197325
55	0xbe5a21d3	-0.21301965
56	0xbdc0e248	-0.0941816
57	0xbe8769c0	-0.26447868
58	0xbd27a0cc	-0.040924832
59	0xbb4c4f88	-0.0031175334
60	0xbd6ff652	-0.05858452
61	0xbd496102	-0.04916478
62	0xbc05b698	-0.0081612095
63	0xbd8e242a	-0.069404915

main.3.weight f4 [128, 64, 2, 2]
0	0x3dca4597	0.098765545
1	0xbdbc3646	-0.09190039
2	0x3e1a9bf0	0.15098548
3	0xbd0dd220	-0.03462422
4	0xbda4e933	-0.08052292
5	0x3bec52ca	0.0072120177
6	0xbd829abe	-0.06377171
7	0xbe355552	-0.17708328
8	0x3e6f66d9	0.23379077
9	0xbc65dda2	-0.014029892
10	0xbd3bfc54	-0.045894936
11	0x3cb0f3d2	0.021600638
12	0x3d16226c	0.03665392
13	0xbe56a7d8	-0.20962465
14	0xbdd795ad	-0.10526595
15	0xbda1182a	-0.07865937
16	0x3db72425	0.08942441
17	0xbd39e917	-0.045388307
18	0xbbe7a448	-0.0070691444
19	0xbd2bc16d	-0.041932512
20	0xbc947609	-0.01812269
21	0x3d9d344f	0.07675993
22	0xbc8abeef	-0.016936747
23	0xbdfaa53d	-0.12238548
24	0xbdb41260	-0.08792567
25	0xbd868696	-0.06568639
26	0x3973b015	0.00023239882
27	0xbd8823ed	-0.06647477
28	0x3dc6f72d	0.09715114
29	0xbdbe0fc0	-0.09280348
30	0xbdae4966	-0.085100934
31	0x3d906a3b	0.07051512
32	0xbe1ccd55	-0.15312703
33	0x3d8a098e	0.06740104
34	0xbcce8fa1	-0.025214972
35	0xbe328ce0	-0.17436552
36	0x3e25dd96	0.1619781
37	0xbe404bd6	-0.18778929
38	0xbe4887e2	-0.19583085
39	0x3c6339c0	0.013868749
40	0xbdd6f00e	-0.104950055
41	0x3d522aed	0.05131047
42	0xbcf0eaac	-0.029408775
43	0xbcfb065f	-0.030642686
44	0x3d22734f	0.039660748
45	0x3dafcea2	0.08584334
46	0x3c0d9e83	0.008643749
47	0xbe02bdab	-0.12767665
48	0xbe4f764b	-0.20259969
49	0x3d94e994	0.07271114
50	0x3d9bed04	0.076135665
51	0xbd2474a8	-0.040150315
52	0xbe509645	-0.20369823
53	0x3d3d2eec	0.046187326
54	0x3dd30334	0.10303345
55	0xbdf2a71a	-0.11848278
56	0xbeeeb303	-0.4662095
57	0x3cec6574	0.02885697
58	0x3c848820	0.01617819
59	0x3eab5835	0.33465734
60	0xbde3bb8a	-0.111197546
61	0xbbdb0b60	-0.0066847056
62	0xbce6c0fe	-0.028168198
63	0xb90e713d	-0.0001358436
64	0x3e0a9fdb	0.13537543
65	0xbd19cdff	-0.03754997
66	0xbdbe6878	-0.092972696
67	0xbd370b8c	-0.044688746
68	0x3c00a5e8	0.007852055
69	0x3d843439	0.06455273
70	0x3dab885f	0.0837562
71	0x3ca239c6	0.01980294
72	0xbd9e8216	-0.07739656
73	0xbcc176e5	-0.023616264
74	0xbd0deaff	-0.034647938
75	0xbd934078	-0.07190031
76	0x3e2a4801	0.1662903
77	0xbd47d259	-0.048784588
78	0x3dbe1dea	0.092830494
79	0x3e8b4b5c	0.27205932
80	0xbd50aba2	-0.05094493
81	0x3de08daf	0.10964524
82	0x3d3c8b30	0.046031177
83	0xbe8f79b9	-0.28022555
84	0x3e979c06	0.29611224
85	0xbd57156e	-0.05251067
86	0xbddf607b	-0.10907074
87	0x3e0d0d74	0.13774663
88	0x3e2ec997	0.17069088
89	0xbd7d232f	-0.06180113
90	0xbddde5f3	-0.10834875
91	0x3dbc0da8	0.09182292
92	0x3c961912	0.018322501
93	0x3e118998	0.14212644
94	0x3de3672d	0.111036636
95	0xbdc7d54c	-0.0975748
96	0xbcefd348	-0.029275551
97	0xbe9dae8c	-0.3079723
98	0xbbf77785	-0.0075520896
99	0xbd4ac061	-0.049499873
100	0xbddd8c39	-0.10817761
101	0x3e19409d	0.14966054
102	0x3d2f6aca	0.04282645
103	0xbdbcbd59	-0.09215803
104	0xbd98fbdf	-0.074699156
105	0xbe23aa59	-0.15982951
106	0x3d2bf9fe	0.041986458
107	0x3c9430ab	0.018089613
108	0xbe15d2d8	-0.14631212
109	0x3d001a65	0.03127517
110	0x3db2256b	0.08698543
111	0xbd039ac4	-0.032130018
112	0xbca684f2	-0.020327065
113	0xbd766014	-0.06015022
114	0xbdae878c	-0.08521947
115	0xbc631045	-0.013858859
116	0xbdab042b	-0.08350404
117	0xbce8c841	-0.028415801
118	0xbd4c41b2	-0.04986734
119	0xbe6b997f	-0.23007773
120	0xba7d529f	-0.00096634956
121	0x3d0cd77e	0.034385197
122	0xbe23e35d	-0.16004701
123	0x3e1d8cc3	0.15385728
124	0xbc9afce9	-0.018919425
125	0xbc83b941	-0.016079547
126	0x3cefbc5e	0.029264625
127	0xbdf18654	-0.11793199
128	0xbda1e44c	-0.07904872
129	0x3d63cafb	0.0556135
130	0xbcf72346	-0.030168187
131	0xbe10ca24	-0.1413961
132	0xbe2216c1	-0.15828992
133	0x3c2905d6	0.010316333
134	0xbd00a181	-0.031404022
135	0xbd914299	-0.070927806
136	0x3c272755	0.010202249
137	0x3cad3a05	0.02114583
138	0x3c7a90dc	0.015293326
139	0xbe00631d	-0.12537809
140	0xbe15508d	-0.14581509
141	0x3d947c3a	0.07250257
142	0x3dc4fdac	0.096186966
143	0xbd756d62	-0.05991877
144	0x3d074b55	0.033030827
145	0x3d9f549a	0.07779808
146	0xbd1910c1	-0.037369493
147	0xbcd6899d	-0.026188666
148	0xbe5f3c06	-0.21800241
149	0xbec2fba5	-0.38082615
150	0xbf0a81a3	-0.5410406
151	0xbcc8122a	-0.024422724
152	0xbd18335f	-0.037158366
153	0x3e1e06fb	0.1543235
154	0x3ddbf91b	0.107408725
155	0xbebaafc1	-0.36462215
156	0xbeb956f8	-0.36199164
157	0xbec81ebe	-0.39085954
158	0xbed0cf6b	-0.40783247
159	0xbcb6bc91	-0.022306712
160	0xbd368ca2	-0.04456771
161	0x3dd67a8a	0.10472591
162	0xbc6c2830	-0.014413878
163	0xbe610551	-0.21974684
164	0xbe80e9ff	-0.25178525
165	0x3e4ca77e	0.19985768
166	0xbbf31a73	-0.0074189245
167	0xbd91ceb9	-0.07119507
168	0x3d3102ec	0.043215677
169	0x3d8db5c8	0.06919438
170	0xbdb98796	-0.09059064
171	0xbdab8420	-0.0837481
172	0xbe3450bb	-0.17608921
173	0xbd41b7b6	-0.04729434
174	0xbdb44ecd	-0.088040926
175	0xbdac9963	-0.08427694
176	0x3d90a18b	0.07062062
177	0xbdb4157a	-0.08793159
178	0xbd39e935	-0.04538842
179	0xbdb672d1	-0.08908618
180	0xbd14c204	-0.03631784
181	0xbb218bfc	-0.0024650088
182	0xbd91aa46	-0.07112555
183	0xbe2e86e0	-0.17043638
184	0x3e1d77da	0.15377751
185	0x3d48a45e	0.048984878
186	0xbd0cbe7a	-0.03436134
187	0x3e481328	0.19538558
188	0xbe2785f0	-0.16359687
189	0xbdbc7354	-0.092016846
190	0xbde82042	-0.11334278
191	0xbe9208dc	-0.28522384
192	0xbe1a25cb	-0.1505348
193	0xbd980e65	-0.074246205
194	0xbd8730e8	-0.06601125
195	0xbe6b2572	-0.22963503
196	0xbe68f5ef	-0.22750066
197	0xbed19506	-0.40934008
198	0x3d27efe8	0.041000277
199	0x3e2e0e85	0.16997726
200	0x3b9d89f9	0.0048077074
201	0x3e3d98be	0.18515298
202	0x3dc9e4c5	0.098580875
203	0xbdf58be4	-0.11989573
204	0xbcf1d398	-0.029519841
205	0x3dac30b1	0.08407725
206	0x3c457f89	0.0120543325
207	0x3d42d744	0.047568575
208	0x3e0b6650	0.13613248
209	0xbe1190de	-0.14215419
210	0xbddb3062	-0.10702588
211	0x3c0956f7	0.00838255
212	0x3d36e719	0.044653986
213	0x3c4957ce	0.012289001
214	0x3d985516	0.07438104
215	0x3cfaf31f	0.030633507
216	0xbe058d87	-0.1304227
217	0x3e300ada	0.1719164
218	0xbd9ebe7b	-0.07751175
219	0xbd4dd425	-0.050251145
220	0x3df95d63	0.12176015
221	0xbe1e545f	-0.15461873
222	0x3aa300dc	0.0012436169
223	0x3e587127	0.21136914
224	0x3e1ef220	0.15522051
225	0xbdbe9876	-0.09306423
226	0xbda73670	-0.0816468
227	0x3e352a10	0.17691827
228	0xbd307c58	-0.043087333
229	0x3e4ece9d	0.20196004
230	0x3e038966	0.12845382
231	0xbaa30b08	-0.0012439201
232	0xbd056900	-0.03257084
233	0xbd2af09c	-0.04173337
234	0xbd0a43c4	-0.033756033
235	0x3e10e659	0.1415037
236	0x3e74ceb2	0.23906973
237	0x3d9a3362	0.07529332
238	0xbe8ced2b	-0.27524695
239	0x3e24e301	0.1610222
240	0x3d46ad7f	0.048505303
241	0x3bca53dd	0.006174548
242	0xbe36b771	-0.17843415
243	0x3da932c0	0.08261633
244	0x3cb15513	0.021647012
245	0x3c0ae1a4	0.0084766485
246	0xbde5701b	-0.11203023
247	0x3c69f675	0.014279951
248	0xbcb2be4b	-0.021819254
249	0x3b320cf4	0.0027168365
250	0xbd59122e	-0.052995853
251	0xbd396292	-0.04526002
252	0xbdee66ab	-0.11640676
253	0x3dac6165	0.08417014
254	0x3d208d85	0.039197464
255	0x3d410506	0.04712393

main.3.bias f4 [128]
0	0xbdaaa7f3	-0.08332815
1	0xbd95d16d	-0.073153354
2	0xbd35c3da	-0.04437623
3	0xbe17deca	-0.14831081
4	0xbd78843c	-0.060672984
5	0xbdb71dd9	-0.0894124
6	0xbd8cdbe2	-0.06877877
7	0xbdaca735	-0.0843033
8	0xbdf8d28c	-0.12149534
9	0xbd9d0112	-0.0766622
10	0xbde4e0e9	-0.11175711
11	0xbd6f757b	-0.058461647
12	0xbd006579	-0.031346772
13	0xbdbb9cc4	-0.0916076
14	0xbd95abf0	-0.07308185
15	0xbd1cb4c5	-0.038258333
16	0xbd740447	-0.05957439
17	0xbd79b6b3	-0.06096525
18	0xbcce6650	-0.02519527
19	0xbdb74e88	-0.089505255
20	0xbd8a2287	-0.06744867
21	0xbd37af7e	-0.044845097
22	0xbd923a3d	-0.07140014
23	0xbd6c7632	-0.057729907
24	0xbceea90c	-0.029133342
25	0xbdb53d91	-0.088496335
26	0xbd5c381f	-0.05376446
27	0xbda5f8ae	-0.081040725
28	0xbd21593d	-0.039391745
29	0xbc96a20d	-0.018387819
30	0xbcfd004a	-0.030883927
31	0xbd8b948f	-0.06815445
32	0xbce1b297	-0.027550979
33	0x3c8369a0	0.016041577
34	0x3d48c94c	0.049020097
35	0xbe0b737c	-0.13618273
36	0xbdfa4c8f	-0.12221634
37	0xbdd7dbad	-0.10539947
38	0xbc6e4f75	-0.014545311
39	0xbd972cd7	-0.073815994
40	0xbd6dc416	-0.05804833
41	0xbe21feee	-0.15819904
42	0xbdc2d9bd	-0.095141865
43	0xbdf4565a	-0.11930533
44	0xbdb12360	-0.08649325
45	0xbdf52e54	-0.11971727
46	0xbd87edcd	-0.06637154
47	0x39c2a7cb	0.0003712758
48	0xbdab0ce4	-0.08352068
49	0xbd8e3e3a	-0.069454625
50	0xbd375fdd	-0.044769157
51	0xbcdaeca4	-0.026724167
52	0xbd34f524	-0.044179097
53	0xbdb33e55	-0.08752123
54	0xbd82a484	-0.06379035
55	0xbe00242a	-0.12513795
56	0xbdeae6d5	-0.11469809
57	0xbd703b3d	-0.058650244
58	0xbd973d58	-0.07384747
59	0xbd343a38	-0.044000834
60	0xbd991fe5	-0.074767865
61	0xbdccbdd1	-0.09997142
62	0xbd4402f9	-0.047854397
63	0xbd9c6812	-0.07637037
64	0xbd85df58	-0.0653674
65	0xbd44285e	-0.04789006
66	0xbde2315c	-0.11044571
67	0x3d5d7bf4	0.05407329
68	0xbda99160	-0.08279681
69	0xbc95922e	-0.01825818
70	0xbdc6149f	-0.09671902
71	0xbdfd358b	-0.12363728
72	0xbde52fcc	-0.11190757
73	0xbd103a29	-0.035211716
74	0xbdc9b28f	-0.098485105
75	0xbc92c19d	-0.017914588
76	0xbdea31f3	-0.11435308
77	0xbd88f45e	-0.06687234
78	0x3cbc10cd	0.02295723
79	0xbc09075c	-0.008363571
80	0xbd9cde29	-0.07659561
81	0xbd7ba98c	-0.06144099
82	0xbd74ecc0	-0.059796095
83	0xbd710076	-0.05883833
84	0xbca22ab8	-0.01979576
85	0xbd9d79e3	-0.07689264
86	0xbd458fd4	-0.04823287
87	0x3c9f8fa0	0.019477665
88	0xbd976f23	-0.073942445
89	0xbc889430	-0.016672224
90	0xbe26ba31	-0.16281964
91	0xbe103196	-0.14081416
92	0xbd91ffd3	-0.07128873
93	0xbd0f2bcf	-0.03495389
94	0xbe14f233	-0.14545517
95	0xbd73db74	-0.05953546
96	0xbda103f3	-0.078620814
97	0xbd7aecb1	-0.061260883
98	0x3c6a2ce9	0.014292934
99	0xbd4f8965	-0.05066814
100	0xba6917eb	-0.00088918087
101	0xbdca3964	-0.09874228
102	0x3c7d0c8f	0.015444889
103	0xbd10e985	-0.03537895
104	0xbd25a72e	-0.040442638
105	0xbd5da750	-0.05411464
106	0xbdf36700	-0.1188488
107	0xbcdc5b8c	-0.026899122
108	0xbd20277e	-0.039100163
109	0xbd3c3c98	-0.045956224
110	0xbcead7ba	-0.02866732
111	0xbd6a9d3a	-0.05727885
112	0xbd6ad247	-0.057329442
113	0xbc4c7f53	-0.012481528
114	0xbe12901e	-0.14312789
115	0xbd8846f7	-0.066541605
116	0xbd91ab7e	-0.07112788
117	0xbdce5c80	-0.10076237
118	0xbcaf40b9	-0.021393167
119	0xbd1a07b9	-0.03760502
120	0xbdef8158	-0.11694592
121	0xbdb22c3e	-0.08699845
122	0xbda856b6	-0.08219664
123	0xbd8cda84	-0.06877616
124	0xbdc0c9b6	-0.09413473
125	0xbddc01ec	-0.10742554
126	0xbd8a2b06	-0.06746487
127	0xbe0b1da8	-0.13585532

main.6.weight f4 [256, 128, 2, 2]
0	0x3e9f0ad7	0.31062958
1	0x3e8ba40b	0.27273592
2	0x3d6fd47d	0.058552254
3	0xbdae45d4	-0.085094124
4	0xbe08f842	-0.13375953
5	0x3cc42a78	0.023946032
6	0x3d0ecb31	0.034861747
7	0xbd015a8d	-0.031580497
8	0x3e2d71c0	0.16937923
9	0x3e0f08b9	0.13968171
10	0xbd61dcb0	-0.055142105
11	0x3dc8d267	0.09805756
12	0xbe040849	-0.12893786
13	0xbd92948e	-0.07157241
14	0x3cda3535	0.0266367
15	0xbc428a0b	-0.011873732
16	0x3e507d49	0.20360292
17	0xbbae7af4	-0.0053247157
18	0xbd2da306	-0.0423918
19	0x3a422d18	0.0007407232
20	0x3dacab16	0.084310696
21	0x3d87a16e	0.06622587
22	0x3d90c3c5	0.0706859
23	0x3e0d546e	0.13801739
24	0x3ec31581	0.38102344
25	0xbd5417de	-0.051780574
26	0x3dc7f277	0.097630434
27	0xbe39f18b	-0.18158548
28	0xbe0f50b7	-0.13995634
29	0xbe27f32f	-0.16401361
30	0x3dffeed3	0.12496724
31	0xbdeb9dc8	-0.11504704
32	0xbd27d672	-0.040975995
33	0xbddd5b2c	-0.10808405
34	0x3e447c83	0.19188122
35	0x3eaf35ea	0.3422082
36	0x3bd61ad7	0.0065339613
37	0xbb6eea32	-0.003645551
38	0x3e2fea40	0.17179203
39	0x3d5326a6	0.05155053
40	0xbddb2215	-0.1069986
41	0xbe0bc469	-0.13649143
42	0xbd0f6648	-0.035009652
43	0xbc555615	-0.013021012
44	0xbd6ca3b9	-0.057773326
45	0xbdc93354	-0.09824243
46	0x3c8ff68f	0.017573623
47	0xbe59d934	-0.21274263
48	0xbe832158	-0.25611377
49	0xbdb3437a	-0.087531045
50	0xba926b24	-0.0011170846
51	0xbcc07e10	-0.023497611
52	0xbe7f6acb	-0.24943082
53	0xbe62b34c	-0.22138709
54	0x3d6e3003	0.058151256
55	0x3d2b1f25	0.04177775
56	0xbe20b256	-0.1569303
57	0x3d14ccf3	0.036328267
58	0x3dc1bd93	0.094599865
59	0x3e8c2857	0.27374527
60	0xbd9f789e	-0.07786678
61	0xbdfe6d7f	-0.124232285
62	0x3c2c5462	0.010518165
63	0x3cbcaeec	0.023032628
64	0xbcf1a224	-0.02949626
65	0x3d80a3ed	0.06281266
66	0x3e5822cb	0.21107022
67	0x3ccff8d8	0.025387213
68	0x3de05b2f	0.10954892
69	0x3a6070ed	0.0008561749
70	0xbdc10dfc	-0.094264954
71	0x3d8de6e0	0.069288015
72	0xbeabdc2a	-0.3356641
73	0xbd0b87fb	-0.034065228
74	0x3dffa006	0.12481694
75	0x3da619aa	0.08110364
76	0xbd1cffed	-0.038330007
77	0x3ead5bb3	0.33859023
78	0xbb17b911	-0.002315108
79	0xbc01a18d	-0.007912052
80	0xbd139e67	-0.036039736
81	0xbe4bc954	-0.1990102
82	0x3e00fcf4	0.12596494
83	0xbda44306	-0.08020596
84	0x3d9c0097	0.076173
85	0xbe0356b8	-0.1282605
86	0x3d993b45	0.07482008
87	0x3c961e2c	0.018324934
88	0xbb79bdc6	-0.0038107499
89	0x3b760227	0.0037537904
90	0xbd9cbb29	-0.076528855
91	0xbd8dcd03	-0.069238685
92	0x3e7893fe	0.24275205
93	0x3e6ebcef	0.2331426
94	0x3d4bcaeb	0.049754065
95	0x3d2aded8	0.041716427
96	0xbdea5712	-0.114423886
97	0x3e3fa8e5	0.18716772
98	0xbd844ba9	-0.064597435
99	0x3df93d82	0.12169935
100	0x3dff7800	0.1247406
101	0xbe1fb8a6	-0.15597782
102	0xbd050ff8	-0.032485932
103	0xbe066d63	-0.13127665
104	0x3e4d2fb2	0.20037726
105	0xbe3f5877	-0.1868609
106	0x3e07d521	0.13264896
107	0xbdedd38a	-0.116126135
108	0x3e9e061c	0.30864036
109	0xbdde0212	-0.10840239
110	0x3c1254e6	0.008931374
111	0xbe011858	-0.12606943
112	0x3cb146f8	0.021640286
113	0xbca8bee6	-0.02059884
114	0xbdb05276	-0.08609478
115	0xbd3f11a2	-0.046647675
116	0x3e0b341f	0.13594101
117	0x3c1e0456	0.009644588
118	0xbe01456a	-0.12624136
119	0x3d3899dd	0.04506861
120	0x3dd0dbe5	0.101981916
121	0xbd8a6486	-0.067574546
122	0x3db9e0f1	0.09076107
123	0x3d8988f8	0.06715578
124	0xbba95757	-0.0051678824
125	0x3cb586f1	0.022159072
126	0x3ea8c2f3	0.32961234
127	0x3e553c19	0.20823707
128	0x3c9c1c09	0.019056337
129	0x3e4a113d	0.19733138
130	0x3de16ce9	0.11007101
131	0x3dade068	0.08490068
132	0xbd803f11	-0.06262029
133	0x3e4ba798	0.1988815
134	0x3d61c309	0.05511764
135	0xbba704f7	-0.0050970274
136	0x3dd6408a	0.104615286
137	0xbdc539f4	-0.09630194
138	0xbd757175	-0.059922654
139	0x3e257c3d	0.16160674
140	0x3e46a008	0.19396985
141	0x3d5ec6cd	0.05438881
142	0x3e162036	0.14660725
143	0xbe6166b4	-0.22011834
144	0x3dfaf345	0.12253431
145	0xbe4267a4	-0.18984848
146	0xbd34a5d4	-0.04410346
147	0x3cf2cff1	0.02964017
148	0x3dbe165b	0.09281608
149	0xbda9533c	-0.08267829
150	0xb9b7e775	-0.0003507693
151	0xbd1b8f4a	-0.037978448
152	0x3e926899	0.28595427
153	0x3e80fdca	0.25193626
154	0xbdc6e8fd	-0.09712408
155	0xbdad3544	-0.08457425
156	0xbdb5d292	-0.08878054
157	0x3b8ce94a	0.004300271
158	0xbe171e05	-0.14757545
159	0x3bfe8ae2	0.007768021
160	0xbd813cf3	-0.06310453
161	0xbd8ae03f	-0.06781053
162	0xbe0dfa49	-0.13865007
163	0x3dc9e4b0	0.09858072
164	0x3d3d2552	0.04617817
165	0xbd9d3a2e	-0.076771125
166	0x3d8b1677	0.06791394
167	0x3dacd0e4	0.0843828
168	0xbd5b5021	-0.053543214
169	0x3dc65473	0.09684076
170	0xbd9525c3	-0.07282593
171	0x3e059ffa	0.13049307
172	0x3e3c96de	0.18416926
173	0xbde7d955	-0.1132075
174	0x3d885f83	0.066588424
175	0x3d8ff322	0.07028796
176	0xbce13856	-0.027492683
177	0x3d3b440f	0.045719203
178	0xbc5367cb	-0.012903164
179	0xbe01457f	-0.12624167
180	0xbdc4c1f6	-0.096073076
181	0xbd9909f0	-0.074725986
182	0xbe00c298	-0.12574232
183	0xbd86c5ab	-0.06580671
184	0xbd864889	-0.06556804
185	0xbd6951a8	-0.05696264
186	0x3d53aae3	0.051676642
187	0x3d489c3b	0.048977118
188	0xbc878419	-0.016542481
189	0xbdaf64f8	-0.0856418
190	0xbd32a73a	-0.04361651
191	0xbe33763f	-0.17525576
192	0x3d7b1161	0.06129587
193	0x3dd6e8b1	0.10493601
194	0xbcb79caa	-0.02241357
195	0xbd643b52	-0.055720635
196	0xbdef4651	-0.11683334
197	0x3d00dbc5	0.03145959
198	0x3dac0e96	0.084012195
199	0x3d84a443	0.06476643
200	0xbd0b8d60	-0.034070373
201	0x3d825c42	0.06365253
202	0x3e5abad9	0.21360339
203	0xbce608c3	-0.02808035
204	0x3e2fd1dd	0.171699
205	0xbdccc30d	-0.099981405
206	0x3ce79020	0.028266966
207	0xbcd56260	-0.026047885
208	0xbdea32a1	-0.11435438
209	0xbdcfcee6	-0.101468846
210	0x3e0856a5	0.13314302
211	0x3c6c8e3c	0.014438208
212	0x3e7c3312	0.24628857
213	0x3e2a7acc	0.16648406
214	0x3d496762	0.04917086
215	0xbcec21c4	-0.028824694
216	0xbe00ff57	-0.12597404
217	0xbbecd262	-0.007227228
218	0x3ce5afb3	0.028037881
219	0xbda8e0eb	-0.08246025
220	0x3e4e08c6	0.20120534
221	0x3ea6ce8f	0.32579467
222	0x3b64d569	0.0034917241
223	0x3e3ff741	0.18746664
224	0x3e303cfc	0.17210764
225	0x3e97c53a	0.2964266
226	0x3dcd8c55	0.10036532
227	0xbd594df6	-0.053052865
228	0xbe3385bb	-0.17531483
229	0x3e005cb3	0.12535362
230	0xbdb512d1	-0.088414796
231	0xbdc6126c	-0.096714824
232	0xbbad2999	-0.0052845
233	0x3cac735a	0.021051098
234	0x3e080941	0.1328478
235	0x3dd14174	0.10217562
236	0x3e0de373	0.13856296
237	0xbb894e86	-0.004190269
238	0xbd2e1a07	-0.04250529
239	0x3d005e12	0.031339712
240	0xbca0b1f5	-0.019616107
241	0xbca6f06a	-0.02037831
242	0x3d9a433c	0.07532355
243	0xbdb36dfa	-0.08761211
244	0x3de79bad	0.1130899
245	0xbe094c17	-0.13407932
246	0x3d74126d	0.059587885
247	0xbe639a05	-0.22226723
248	0x3da07028	0.07833892
249	0xbbc34d2e	-0.0059601283
250	0xbd242e07	-0.040082958
251	0x3cc5ab51	0.024129542
252	0x3d9e88ba	0.07740922
253	0x3e026767	0.12734757
254	0xbba0c39b	-0.0049061305
255	0xbd084102	-0.03326512

main.6.bias f4 [256]
0	0xbcf24e94	-0.029578485
1	0xbd6dcec4	-0.058058515
2	0xbd78ea00	-0.060770035
3	0xbe28fc3e	-0.16502473
4	0xbd57b0fb	-0.052659016
5	0xbacbbb57	-0.0015543503
6	0xbe108b82	-0.14115718
7	0xbe07b9d4	-0.13254482
8	0xbd76c037	-0.060241904
9	0xbe627deb	-0.22118346
10	0x3d0df874	0.03466077
11	0xbddabf10	-0.106809735
12	0xbda189c4	-0.07887605
13	0xbe2ce785	-0.16885193
14	0xbdb34a22	-0.08754374
15	0xbda72e3c	-0.081631154
16	0xbce89694	-0.028392114
17	0xbd4160ac	-0.047211334
18	0xbe5512f1	-0.20808007
19	0xbd103565	-0.03520717
20	0xbdaf0376	-0.08545582
21	0xbd23cf4f	-0.039992627
22	0xbd48ce45	-0.04902484
23	0xbe835ae3	-0.2565528
24	0xbe97d6f0	-0.29656172
25	0xbdd5bbcf	-0.10436212
26	0xbd20fe38	-0.039304942
27	0xbd90659a	-0.07050629
28	0xbc64815e	-0.013946859
29	0xbe55adaf	-0.20867036
30	0xbe056670	-0.13027358
31	0xbdf723a2	-0.12067343
32	0xbb65e04a	-0.0035076314
33	0xbd9d9265	-0.07693938
34	0x3cfdb1dd	0.0309686
35	0xbde110e3	-0.10989549
36	0xbe2593d3	-0.16169672
37	0x3d0a70f4	0.033799127
38	0xbcc5dec1	-0.024154069
39	0xbdb0ed6f	-0.08639037
40	0xbc90a788	-0.01765801
41	0xbd574ef5	-0.052565534
42	0xbe29dcda	-0.16588154
43	0xbde38226	-0.11108808
44	0x3cf1fd8b	0.029539844
45	0xbd907474	-0.07053462
46	0xbdee3d45	-0.1163278
47	0xbe26a31e	-0.16273162
48	0xbd156389	-0.036471877
49	0xbe2a14d5	-0.1660951
50	0xbcd8e099	-0.026474284
51	0xbdf66a98	-0.1203205
52	0xbd0817c9	-0.03322581
53	0xbe0e27ec	-0.13882416
54	0xbda2d2d1	-0.07950366
55	0xbebc971e	-0.36834043
56	0xbb7bd8b4	-0.0038428726
57	0xbe21cec1	-0.15801527
58	0xbe138430	-0.14405894
59	0xbe17bcf2	-0.1481817
60	0xbdc03975	-0.09385959
61	0x3d2e5116	0.0425578
62	0xbe50ca1c	-0.20389599
63	0xbe195626	-0.1497427
64	0xbde80997	-0.11329954
65	0xbcde7b62	-0.027158443
66	0xbd90a3db	-0.07062503
67	0x3c44b5fc	0.012006279
68	0xbd8b017f	-0.06787395
69	0xbd8d2d9f	-0.06893467
70	0xbd30837f	-0.043094154
71	0x3bc7fdba	0.0061032446
72	0x3d1f6a5e	0.0389198
73	0x3ba45bb1	0.0050158133
74	0xbddfff7e	-0.10937403
75	0x3d3171a1	0.043321256
76	0xbdfb2728	-0.12263328
77	0xbe855820	-0.26043797
78	0xbda24fa6	-0.07925348
79	0xbddca44a	-0.10773523
80	0xbe10988f	-0.14120696
81	0xbbb48c96	-0.005509923
82	0x3c5ad737	0.013356975
83	0x3c072b06	0.008250004
84	0xbe0d8874	-0.13821584
85	0xbc9ef3fc	-0.01940345
86	0xbc4bc482	-0.012436988
87	0xbcee4bc6	-0.029088866
88	0xbda11f74	-0.07867327
89	0xbd4a7b65	-0.049434084
90	0xbbaf9320	-0.005358115
91	0xbd864f26	-0.06558065
92	0xbe060a6b	-0.13089912
93	0x3d3f34dc	0.04668127
94	0xbdd0dc5f	-0.101982825
95	0xbdac278a	-0.08405979
96	0xbe06fe80	-0.13183022
97	0xbd8e2243	-0.06940129
98	0xbdf76dc1	-0.12081481
99	0xbd9def25	-0.07711629
100	0xbe49fecd	-0.19726105
101	0xbe162ffc	-0.14666742
102	0xbe1ba8d3	-0.1520112
103	0xbd497bd9	-0.049190376
104	0xbd31ca1b	-0.043405633
105	0xbd2082b4	-0.03918715
106	0xbde60503	-0.11231425
107	0xbd019718	-0.031638235
108	0xbdad22eb	-0.08453926
109	0xbe26f2e4	-0.16303593
110	0xbea63fbc	-0.324705
111	0xbd57593e	-0.052575342
112	0xbdf627a5	-0.1201928
113	0xbd7194b4	-0.058979705
114	0xbe7bb4da	-0.24580708
115	0xbda3af56	-0.07992427
116	0xbdb59ffd	-0.08868406
117	0xbd6185aa	-0.055059113
118	0xbd7c3772	-0.061576314
119	0x3c121b8f	0.008917703
120	0xbde669c7	-0.11250644
121	0xbd8ac914	-0.06776634
122	0xbe10dd9e	-0.1414704
123	0xbe1a21f7	-0.15052019
124	0xbd9d1fe2	-0.07672097
125	0xbc60211a	-0.013679767
126	0x3c49ed32	0.012324618
127	0xbe021a54	-0.12705356
128	0xbd9f2325	-0.07770375
129	0x3c1c1cba	0.009528333
130	0xbe0ef0e7	-0.13959084
131	0xbd7a242c	-0.061069652
132	0xbe075733	-0.13216858
133	0xbd9d14e9	-0.07670004
134	0xbd93e448	-0.072212756
135	0x3ae1a341	0.0017214791
136	0xbd4c8b0a	-0.049937285
137	0xbe0270e3	-0.12738375
138	0x3e08d958	0.1336416
139	0xbd9b3b28	-0.075796425
140	0xbe09c851	-0.13455321
141	0xbd9b43f8	-0.075813234
142	0xbd4c008f	-0.04980522
143	0xbd68d800	-0.05684662
144	0xbd414593	-0.04718549
145	0xbddc347b	-0.10752197
146	0xbd73ec3b	-0.05955146
147	0xbdd02f18	-0.101652324
148	0xbd1e5fd8	-0.038665622
149	0xbd6e7d42	-0.058224924
150	0xbb903c71	-0.0044017364
151	0xbd844dc2	-0.064601436
152	0xbdb8fcca	-0.09032591
153	0xbdadc83c	-0.08485457
154	0xbe2ac84a	-0.16677967
155	0xbd184e55	-0.03718408
156	0xbe31e7a5	-0.17373522
157	0xbe27bc39	-0.16380395
158	0xbdf5dfe1	-0.12005592
159	0x3c34f5f4	0.011044968
160	0x3de7efba	0.11325021
161	0xbd5b748a	-0.053577937
162	0xbd0f39da	-0.03496728
163	0x3c4495fe	0.011998652
164	0xbdbc8361	-0.09204746
165	0xbe15afff	-0.14617918
166	0xbe6523d9	-0.22376956
167	0xbd75ba99	-0.059992407
168	0x3deee6f4	0.116651446
169	0xbdd94c80	-0.10610294
170	0xbe01de98	-0.12682569
171	0xbd950b2e	-0.07277523
172	0xbcd38b55	-0.025823275
173	0x3d259477	0.04042479
174	0xbdfe7524	-0.124246866
175	0xbd4b8bd2	-0.04969389
176	0xbe40a1f0	-0.18811774
177	0xbe183681	-0.14864542
178	0xbcb39609	-0.021922128
179	0xbd92106f	-0.07132041
180	0xbdbd40b0	-0.09240854
181	0xbe42f049	-0.19036974
182	0xbdfa9abf	-0.12236547
183	0xbd7a99ba	-0.06118176
184	0xbd598f13	-0.05311496
185	0xbda15813	-0.07878127
186	0xbd9e3f43	-0.0772691
187	0xbe8dcc2e	-0.2769484
188	0xbe1d3c83	-0.15355115
189	0xbdefc8d8	-0.1170823
190	0xbda641b8	-0.081180036
191	0xbdb9c9df	-0.09071707
192	0xbd377afa	-0.044795014
193	0xbda0d745	-0.078535594
194	0xbd770682	-0.06030894
195	0xbd8c99fa	-0.06865306
196	0xbdeb7a50	-0.11497939
197	0xbe1c3725	-0.15255411
198	0xbd0ed9df	-0.034875747
199	0xbcee7952	-0.029110584
200	0xbe03eb8e	-0.12882826
201	0xbe157915	-0.1459697
202	0xbd88c16e	-0.06677519
203	0x3d00fef5	0.031493146
204	0xbde2f58a	-0.11081989
205	0xbe0abf0f	-0.13549446
206	0xbd82913e	-0.06375359
207	0xbd7168c4	-0.058937803
208	0xbe354671	-0.17702653
209	0xbd01d836	-0.031700335
210	0xbd9deb80	-0.07710934
211	0xbe3f5e5b	-0.18688338
212	0xbe0422f1	-0.12903954
213	0xbdbe2d0a	-0.09285934
214	0x3d09726a	0.03355638
215	0xbe637207	-0.22211467
216	0xbdf4792c	-0.11937174
217	0xbe3ae4cf	-0.18251346
218	0xbc73b85e	-0.0148754995
219	0xbc47634e	-0.012169672
220	0xbd94d835	-0.07267801
221	0xbe32d187	-0.17462741
222	0xbe6347e1	-0.22195388
223	0x3c96cc43	0.018407946
224	0xbdb42023	-0.08795192
225	0xbd86f1f8	-0.065891206
226	0x3c280427	0.010254896
227	0xbe16f70a	-0.14742675
228	0xbe15062d	-0.14553137
229	0xbe3e0b17	-0.18558918
230	0xbcaeca75	-0.021336773
231	0xbdc0e6a0	-0.09418988
232	0xbe426372	-0.18983248
233	0x3d0fa744	0.035071626
234	0xbe65d69a	-0.22445145
235	0x3d4cf060	0.050033927
236	0xbe9e3569	-0.30900124
237	0xbdc1fcd2	-0.0947205
238	0xbd9c5dab	-0.07635053
239	0xbe006768	-0.12539446
240	0xbdb94061	-0.090454824
241	0xbd88894b	-0.066668116
242	0xbd3aff7b	-0.0456538
243	0x3d94ac67	0.07259446
244	0xbd8d60b7	-0.069032125
245	0x3d24f9f6	0.040277444
246	0xbda1aa44	-0.07893804
247	0xbe2edbbf	-0.17076014
248	0xbe311932	-0.17294767
249	0xbdea5c6e	-0.11443411
250	0xbe375fcf	-0.17907642
251	0xbdd3741e	-0.10324882
252	0x3e2d51b7	0.16925703
253	0xbda1d6c4	-0.079022914
254	0xbdb1382f	-0.08653294
255	0xbdefad7a	-0.1170301

main.10.weight f4 [1, 4096]
0	0x3e206507	0.15663539
1	0x3e1c4b92	0.15263203
2	0xbd07b13c	-0.03312801
3	0x3e4615d0	0.19344258
4	0x3db9f5fd	0.09080122
5	0x3ce69e33	0.028151607
6	0x3bef17c6	0.007296535
7	0xbe01d05e	-0.12677142
8	0x3db4a4be	0.088204846
9	0x3e0652a6	0.13117465
10	0xbdab2722	-0.08357073
11	0x3b83f3b1	0.004026853
12	0x3e2cd5ea	0.16878477
13	0xbe5205d2	-0.20510033
14	0x3e1b2ba5	0.15153368
15	0x3e1df59e	0.15425727
16	0x3d6a4e86	0.057203792
17	0x3e1074f8	0.1410712
18	0x3dd97dbc	0.10619685
19	0x3d611a2a	0.054956593
20	0x3e1d8692	0.15383366
21	0x3cf29c92	0.029615674
22	0x3d83ce7d	0.06435869
23	0x3cd5ae62	0.026084129
24	0x3c423f01	0.011855842
25	0xbe2e52d6	-0.17023787
26	0x3b94f0d3	0.00454531
27	0xbda8e9fe	-0.082477555
28	0x3e3c92f8	0.18415439
29	0xbe4707f7	-0.19436632
30	0x3e024849	0.12722887
31	0x3dfd615a	0.12372084
32	0xbe997031	-0.29968408
33	0xbe4f6c33	-0.20256118
34	0xbe00b9d4	-0.12570888
35	0x3d8da969	0.06917078
36	0x3d4f5c4c	0.05062513
37	0x3d8a6713	0.06757941
38	0xbc2922d2	-0.010323243
39	0x3dcefbbd	0.10106609
40	0x3beac683	0.0071647777
41	0xbd97804f	-0.0739752
42	0xbd0de029	-0.034637604
43	0xbc6b319e	-0.014355091
44	0x3e94e744	0.29082692
45	0xbdc01f5c	-0.09380981
46	0xbd450216	-0.048097692
47	0x3de5b128	0.112154305
48	0xbdb1532f	-0.08658444
49	0x3e030dc2	0.12798217
50	0x3de73dcf	0.11291086
51	0x3d68db4b	0.05684976
52	0x3d5cf28f	0.05394226
53	0x3da27edb	0.07934352
54	0x3cc66009	0.024215715
55	0x3d50dfab	0.050994556
56	0x3dc07ac7	0.09398418
57	0xbe3827a5	-0.17983873
58	0xbb93d685	-0.0045116567
59	0x3cfc226d	0.030778134
60	0x3cff10a0	0.031135857
61	0x3e4ba656	0.19887671
62	0xbd931725	-0.07182149
63	0x3e80fe45	0.25193992
64	0x3e0c802b	0.13720767
65	0xbe09003c	-0.13378996
66	0x3cbb4721	0.022861065
67	0xbe4e2d01	-0.20134355
68	0xbe408cf9	-0.18803777
69	0xbe06243d	-0.13099761
70	0x3d895ee7	0.06707554
71	0xbb4ec747	-0.0031551884
72	0xbd3841c6	-0.0449846
73	0xbe20047f	-0.15626715
74	0xbd14098a	-0.03614191
75	0x3c8c1481	0.01709962
76	0x3e281aa4	0.16416413
77	0x3e43bc5c	0.19114822
78	0x3cd14269	0.025544362
79	0x3cea0637	0.028567417
80	0xbe826331	-0.25466302
81	0xbd4c31a0	-0.049852014
82	0x3d9c77ec	0.07640061
83	0x3da7f783	0.08201506
84	0x3d94f942	0.07274105
85	0x3c03289c	0.0080052875
86	0x3d8bc3d5	0.06824461
87	0x3dae8dc2	0.08523132
88	0x3dabbfa4	0.08386162
89	0xbe06a6ab	-0.13149516
90	0xbe314ebc	-0.17315191
91	0xbc3a2aba	-0.011362726
92	0x3d9ee1dd	0.07757924
93	0xbba25c24	-0.0049548317
94	0xbe5c4ce8	-0.21513712
95	0x3d9e0669	0.077160664
96	0x3ece01e6	0.40235823
97	0xbdbb6120	-0.091493845
98	0xbcb11e86	-0.021621
99	0x3e152afe	0.14567181
100	0x3e10acf3	0.14128475
101	0xbd31fcb5	-0.04345389
102	0xbdf0f23b	-0.11764952
103	0x3d7c0e22	0.061536916
104	0x3e0268f4	0.12735349
105	0x3ddd61cb	0.10809668
106	0xbdd43850	-0.10362303
107	0x3de8dff3	0.1137084
108	0x3d04b24b	0.032396596
109	0x3d7ec184	0.06219627
110	0xbc8a375d	-0.016872102
111	0xbd4ac1ea	-0.049501337
112	0xbdc49f1b	-0.096006595
113	0x3e5497f0	0.20761085
114	0x3dc937f3	0.098251246
115	0xbdb5926d	-0.08865819
116	0x3e177c25	0.14793451
117	0xbd787097	-0.06065425
118	0xbe086525	-0.13319834
119	0xbcb3069d	-0.02185374
120	0xbc5cd089	-0.013477453
121	0x3e01504b	0.12628286
122	0x3e338c0e	0.17533895
123	0xbe049587	-0.12947665
124	0xbd714e6e	-0.058912687
125	0x3ddf23bc	0.10895488
126	0x3d22d16d	0.039750505
127	0xbc24aaa9	-0.010050454
128	0xbdc00d2a	-0.09377511
129	0x3e2e5dea	0.17028013
130	0xbb91655b	-0.0044371313
131	0x3859c259	5.1917832e-05
132	0x3c896bbb	0.016775003
133	0xbd256780	-0.04038191
134	0xbe0cdf50	-0.13757062
135	0x3e638c1c	0.22221416
136	0x3d9d51a3	0.076815866
137	0xbc854751	-0.016269358
138	0x3c68d168	0.014210083
139	0x3ddbb76c	0.10728344
140	0x3d55af8f	0.05216938
141	0xbc2bde76	-0.010490051
142	0xbda172c7	-0.0788322
143	0x3dc4132b	0.095739685
144	0xbbeae93b	-0.0071689165
145	0xbcb610fe	-0.0222249
146	0x3d04c841	0.03241754
147	0x3e03066f	0.12795423
148	0x3d8bc3fd	0.06824491
149	0xbc6d0887	-0.014467365
150	0x3e137375	0.14399512
151	0x3dcc59ed	0.099780895
152	0x3d516529	0.051121864
153	0xbe83040c	-0.25589025
154	0xbe11d7cc	-0.14242476
155	0xbdd4961e	-0.10380195
156	0x3e2d6f88	0.16937077
157	0xbdb27efe	-0.08715628
158	0xbe028eba	-0.12749758
159	0x3c9c4b8f	0.019078998
160	0x3e057b14	0.13035232
161	0x3d430662	0.04761351
162	0x3d0fc467	0.035099413
163	0xbbd6a2d4	-0.0065501723
164	0x3e1ead85	0.1549588
165	0xbc8a9334	-0.016915895
166	0xbd320d0d	-0.043469477
167	0x3e306847	0.17227279
168	0x3e703263	0.23456721
169	0x3d5734e2	0.052540667
170	0xbe26b21a	-0.16278878
171	0x3bf3275a	0.0074204626
172	0xbe740ce1	-0.23833038
173	0xbcaca8bd	-0.021076554
174	0x3c439113	0.011936444
175	0x3d3bd702	0.045859344
176	0x3e3b043a	0.18263331
177	0x3d2e73b9	0.04259083
178	0xbdcd0ef1	-0.100126155
179	0xbd6150b5	-0.05500861
180	0xbd57af5e	-0.052657478
181	0xbd21b4f0	-0.039479196
182	0xbdd59904	-0.10429576
183	0x3e1fd60d	0.15608998
184	0xbbe6d54c	-0.00704447
185	0xbd8bc94c	-0.06825504
186	0xbdab1c14	-0.08354965
187	0x3d7e9e69	0.06216279
188	0x3dc13c98	0.094353855
189	0xbd563540	-0.052296877
190	0xbd376818	-0.044777006
191	0x3df2462e	0.11829792
192	0xbd956889	-0.07295329
193	0x3b94935b	0.0045341677
194	0x3d01755a	0.031606056
195	0xbe003668	-0.12520754
196	0x3d014585	0.03156044
197	0x3d87ffce	0.06640588
198	0x3cbfee85	0.023429165
199	0x3e268843	0.16262917
200	0x3e2096f6	0.15682587
201	0x3e368217	0.17823063
202	0xbd87dc74	-0.06633845
203	0x3c240f6e	0.010013444
204	0x3b4c1b14	0.003114407
205	0x3ca5d0d0	0.020241171
206	0x3d48aee4	0.048994914
207	0xbd676cdf	-0.056500312
208	0xbddbf38c	-0.10739812
209	0x3d95f9bb	0.07323023
210	0x3cbc1b1c	0.022962146
211	0xbd329d6e	-0.043607168
212	0x3d4097df	0.047019836
213	0xbdb36c28	-0.087608635
214	0xbd115808	-0.035484344
215	0x3e0bdaef	0.13657735
216	0xbd791e57	-0.06081995
217	0x3e27178a	0.16317573
218	0xbe58b304	-0.21162039
219	0x3e1d10ce	0.15338442
220	0xbe2a6396	-0.16639552
221	0xbd20ef72	-0.039290853
222	0xbd3f0356	-0.04663404
223	0x3e8c2bcb	0.2737716
224	0x3dea1f12	0.114317074
225	0x3e3677b2	0.17819098
226	0x3e4abe34	0.19799119
227	0x3e85c4a8	0.261266
228	0xbd1dfa62	-0.03856886
229	0xbdea8d35	-0.11452714
230	0xbce3c3cd	-0.027803326
231	0x3cd9933c	0.026559465
232	0xbe70b677	-0.23507105
233	0x3db5c740	0.088758945
234	0x3e1c0e6f	0.15239881
235	0x3c590068	0.013244726
236	0x3e332378	0.17493999
237	0xbc142f79	-0.0090445215
238	0xbd718003	-0.058959972
239	0xbbd817d5	-0.006594638
240	0xbe3dadf5	-0.1852339
241	0x3d1700a7	0.036865856
242	0x3e0b7fcd	0.13622971
243	0x3c910814	0.017704047
244	0x3ce5409c	0.02798491
245	0x3b0c0f5f	0.0021371467
246	0xbd166856	-0.036720596
247	0x3d2f935c	0.042865142
248	0xbcb81722	-0.022471968
249	0xbd266cb6	-0.04063102
250	0xbc95751c	-0.018244319
251	0xbe0ca73e	-0.13735673
252	0xbdd063b5	-0.101752676
253	0x3c257ab6	0.010100057
254	0x3e9b6b2a	0.30355197
255	0x3e0eecf8	0.13957584
